Assets/AI/_old model/Ant2.onnx (onnx, 8436 bytes, 9 tensors)

62 f4 [10]
0	0x3a83124c	0.000999996
1	0x3e9ed98f	0.3102536
2	0x3a83124c	0.000999996
3	0x3a83124c	0.000999996
4	0x3a83124c	0.000999996
5	0x3a83124c	0.000999996
6	0x3a83124c	0.000999996
7	0x3a83124c	0.000999996
8	0x3eb5aa84	0.35481656
9	0x3a83124c	0.000999996

action_model._continuous_distribution.log_sigma f4 [1, 2]
0	0xbd6d22d8	-0.057894558
1	0xbe86edf7	-0.26353428

action_model._continuous_distribution.mu.bias f4 [2]
0	0x3ec7feed	0.3906168
1	0xbf1e4b85	-0.61833984

action_model._continuous_distribution.mu.weight f4 [2, 32]
0	0x3da2b628	0.079449
1	0xbd69ff6b	-0.05712835
2	0xbcdd61dd	-0.027024204
3	0x3affa8f0	0.0019505303
4	0xbde7e647	-0.11323219
5	0xbdc13000	-0.094329834
6	0x3e6fec69	0.23430027
7	0xbd40ad23	-0.047040116
8	0xbe029588	-0.12752354
9	0xbcdf4dd4	-0.027258791
10	0x3dd6264f	0.104565255
11	0xbd8b8095	-0.068116345
12	0x3d176a65	0.0369667
13	0x3d52e462	0.051487334
14	0xbe8ea95a	-0.2786358
15	0x3dabe8c3	0.08394005
16	0xbb8758db	-0.0041304654
17	0x3de52022	0.111877695
18	0x3cd2d706	0.025737297
19	0xbdb34423	-0.087532304
20	0x3d57f0c7	0.052719858
21	0x3e17fd71	0.14842774
22	0xbe0be337	-0.13660894
23	0xbe52456f	-0.205343
24	0xbe67852c	-0.22609395
25	0xbd9ae1a4	-0.07562569
26	0xbc4fcb01	-0.012682677
27	0xbd72cea7	-0.05927911
28	0xbe04a1f4	-0.12952405
29	0xbd27882b	-0.040901344
30	0xbdbc6325	-0.09198598
31	0x3d846b86	0.06465821
32	0x3d0f9b9a	0.035060503
33	0x3d96de11	0.073665746
34	0x3caa2af6	0.020772438
35	0x3d29d6c1	0.04146457
36	0x3d2a2503	0.041539203
37	0xbcac3275	-0.021020154
38	0xbc107a63	-0.008818242
39	0x3ddd2e1a	0.10799809
40	0xbc136426	-0.008996045
41	0x3d96618d	0.07342825
42	0x3d6e71ec	0.058214113
43	0x3dc9df6f	0.0985707
44	0xbcf8763e	-0.03032982
45	0x3ca36775	0.019946793
46	0x3f03aea3	0.5143835
47	0x3c05e074	0.00817119
48	0x3dc9ad4e	0.09847508
49	0x3cab77f9	0.02093123
50	0xbcab8dbf	-0.020941613
51	0x3e010902	0.12601092
52	0xbbe89a5b	-0.0070984787
53	0xbc76ca0b	-0.015062819
54	0xbcc3cf1a	-0.023902465
55	0x3e16f69c	0.14742512
56	0x3e41502c	0.1887824
57	0x3d5855c4	0.052816167
58	0x3dad5b59	0.08464689
59	0x3db2aa34	0.0872387
60	0x38c0af1a	9.187889e-05
61	0x3c2382eb	0.009979944
62	0x3cc62d9c	0.02419167
63	0x3c15c1a9	0.00914041

network_body.linear_encoder.seq_layers.0.bias f4 [32]
0	0x3d157a64	0.036493674
1	0xbd43ec2a	-0.047832645
2	0xbd19da83	-0.037561905
3	0x3ceb8f3e	0.028754827
4	0x3d5a0525	0.053227562
5	0xbd68b603	-0.056814205
6	0x3d3c3736	0.04595109
7	0x3daebb41	0.085318096
8	0x3cd81581	0.026377441
9	0xbe076e46	-0.1322566
10	0xbce72fa7	-0.028220965
11	0x3e06fd2c	0.13182515
12	0x3ca18017	0.019714398
13	0x3bbafdde	0.005706533
14	0xbd6c61ee	-0.05771058
15	0xbaa11016	-0.0012288119
16	0x3e06eb43	0.13175683
17	0xbe55f7ed	-0.20895357
18	0x3d14b334	0.036303714
19	0x3d552ec7	0.052046563
20	0x3bac0dc9	0.0052506668
21	0x3e2c11fb	0.16803734
22	0xba8dbb01	-0.0010813178
23	0xbd84b5e4	-0.064800054
24	0x3d4858f3	0.048912954
25	0xbe61d41b	-0.22053568
26	0xbe82e148	-0.255625
27	0xbdf25216	-0.11832063
28	0x3d7420d7	0.05960163
29	0xbcb6780e	-0.022274043
30	0xbe1da6a2	-0.15395597
31	0xbc885173	-0.0166404

network_body.linear_encoder.seq_layers.0.weight f4 [32, 10]
0	0x3ead5828	0.3385632
1	0xbd6a509d	-0.057205785
2	0xbcea7758	-0.02862136
3	0x3cf08ace	0.029363062
4	0xbe94d6da	-0.2907017
5	0xbbe881c3	-0.007095547
6	0xbe6a3a06	-0.22873697
7	0xbd81daa2	-0.06340529
8	0x3bcb0443	0.0061955764
9	0x3e8397ca	0.25701743
10	0x3e41f482	0.18940929
11	0xbd701c03	-0.058620464
12	0x3e3f5fae	0.18688843
13	0xbdff146e	-0.124550685
14	0x3eab73cc	0.33486784
15	0x3c2aac7b	0.010417099
16	0x3ea83cc9	0.32858875
17	0xbe43c674	-0.19118673
18	0x3dd17473	0.10227289
19	0xbed85388	-0.4225123
20	0x3e5c1d0e	0.21495458
21	0x3d6dcea0	0.05805838
22	0x3efe9f4d	0.49730912
23	0xbf2563ff	-0.64605707
24	0xbecd804b	-0.40136942
25	0x3ea15820	0.31512547
26	0x3def198a	0.11674793
27	0xbe95d7d5	-0.2926623
28	0xbcf91074	-0.030403353
29	0xbe5e925a	-0.21735516
30	0x3e66ee1d	0.2255177
31	0xbec1ee20	-0.37876987
32	0xbe6f7a01	-0.23386385
33	0x3e9aa3b1	0.30203012
34	0xbd803f2a	-0.062620476
35	0xbe1d0247	-0.153329
36	0x3ee59420	0.44839573
37	0xbde2d6da	-0.11076136
38	0x3ed4d3c0	0.41567802
39	0x3ed11cf6	0.40842408
40	0xbf4d81d1	-0.8027621
41	0xbd86917b	-0.06570717
42	0x3ec51692	0.38493782
43	0xbf3217cc	-0.6956756
44	0x3e75bf8a	0.23998848
45	0xbdb40e58	-0.08791798
46	0x3ed34cea	0.41269618
47	0xbe19efc8	-0.15032876
48	0xbbb69652	-0.005572119
49	0x3eaa2f74	0.3323933
50	0x3d986909	0.07441909
51	0xbe0e3165	-0.1388603
52	0x3c409ec7	0.0117566055
53	0xbe9cd062	-0.30627733
54	0x3e5e88b2	0.21731833
55	0x3df03273	0.117283724
56	0xbe287a10	-0.16452813
57	0xbeb36186	-0.35035342
58	0x3d9f9f7f	0.07794093
59	0xbdf55c4e	-0.11980496
60	0xbc9244d2	-0.017855082
61	0xbda41508	-0.08011824
62	0xbdc0ecbb	-0.09420153
63	0x3e2caf6a	0.1686379
64	0x3f0d27f6	0.551391
65	0xbdbf3c92	-0.09337725
66	0x3f0a80fe	0.54103076
67	0x3ef1300a	0.47106963
68	0xbb9d69ee	-0.0048038876
69	0x3e7abfb4	0.24487191
70	0xbd57bc59	-0.052669857
71	0x3e0af3a1	0.135695
72	0x3e20f0ed	0.15716906
73	0x3e6169c7	0.22013007
74	0x3ea37ba8	0.3193028
75	0x3d7d8ffe	0.0619049
76	0xbab32b23	-0.0013669472
77	0xb9eb3d0e	-0.00044868182
78	0xbdb30cd6	-0.08742683
79	0xbe221895	-0.1582969
80	0xbd836336	-0.06415407
81	0x3e1040ab	0.14087169
82	0xbd993102	-0.074800506
83	0x3ed2056a	0.41019756
84	0xbeb942d9	-0.36183813
85	0xbeb05126	-0.3443691
86	0x3e982112	0.2971273
87	0xbe174061	-0.14770652
88	0xbcfe4a42	-0.031041268
89	0xbebe82b2	-0.37209088
90	0xbeb245ca	-0.3481887
91	0xbf3cb6b1	-0.73716265
92	0x3e47b29b	0.19501726
93	0xbde722e9	-0.112859555
94	0xbeb4eb38	-0.35335708
95	0xbd94f787	-0.072737746
96	0xbe091fc6	-0.13391027
97	0x3da2c973	0.0794858
98	0xbd5bf48d	-0.05370002
99	0x3eba7ac5	0.3642179
100	0x3da9874d	0.0827776
101	0xbe4dbce2	-0.20091584
102	0xbcb50ba7	-0.022100283
103	0xbd53fb5e	-0.051753394
104	0xbe957637	-0.29191753
105	0x3ef39c47	0.47580168
106	0xbed43c3e	-0.4145221
107	0xbddb5fec	-0.10711655
108	0x3d5c8ff2	0.053848214
109	0xbdcbaabd	-0.09944675
110	0x39991dab	0.00029204538
111	0xbd4abf2e	-0.04949873
112	0xbe5beb03	-0.21476369
113	0xbde6a480	-0.11261845
114	0x3e0dddff	0.13854216
115	0xbda0f844	-0.07859853
116	0x3e9dcdfa	0.3082121
117	0xbcba671e	-0.022754248
118	0x3e3bcf3d	0.18340774
119	0x3c9b28d2	0.018940363
120	0x3f09aa31	0.53775316
121	0x3d20f201	0.039293293
122	0x3e84380a	0.25824004
123	0xbe8c2d3a	-0.27378255
124	0xbec3ddbd	-0.3825511
125	0x3f045d63	0.51704997
126	0x3e9b3e07	0.3032076
127	0x3e67ecf0	0.22648978
128	0xbd91f5e4	-0.07126978
129	0xbd82f3ee	-0.06394182
130	0x3e72ebcc	0.23722762
131	0x3dda74b4	0.106667906
132	0xbb8f9982	-0.004382313
133	0x3f0f7152	0.5603229
134	0x3d831547	0.06400543
135	0x3d31f6d8	0.0434483
136	0x3ee3273e	0.44365877
137	0x3eda7aab	0.42671713
138	0xbca47c59	-0.020078825
139	0xbf591a1f	-0.8480548
140	0xbe549f0b	-0.20763795
141	0x3eea4549	0.45755985
142	0x3e24a9af	0.16080354
143	0x3e549ab0	0.20762134
144	0xbd94a97a	-0.072588876
145	0xbef502d0	-0.47853708
146	0xbe9964d5	-0.2995974
147	0xb8d3fe12	-0.00010108588
148	0x3eb05a3d	0.34443846
149	0xbeab6779	-0.3347738
150	0x3f1ea8c7	0.61976284
151	0x3d903869	0.070420094
152	0x3eb1cef0	0.34728193
153	0xbea0c10c	-0.31397283
154	0x3eab904c	0.33508527
155	0xbf151a96	-0.5824369
156	0x3e511867	0.20419465
157	0xbd42e04a	-0.04757718
158	0xbd7281d4	-0.059205845
159	0xbbae6583	-0.0053221597
160	0xbe80f63e	-0.25187868
161	0x3ba29335	0.004961396
162	0x3eb63a7f	0.35591504
163	0x3f2a2645	0.66464645
164	0xbd434b67	-0.04767933
165	0xbed8414a	-0.42237312
166	0xbe020adc	-0.12699455
167	0xbec6edc1	-0.38853267
168	0x3ce1fc33	0.027586078
169	0x3e4b8f19	0.19878806
170	0xbecb1faf	-0.3967261
171	0xbe2415a9	-0.16023888
172	0xbd801310	-0.06253636
173	0x3de9f7cb	0.11424216
174	0xbf0f0f9f	-0.5588321
175	0xbd8cdf17	-0.068784885
176	0x3e150df6	0.14556107
177	0xbca3a2cd	-0.01997509
178	0xbae31551	-0.0017325078
179	0x3aed5484	0.0018106853
180	0xbee6ed34	-0.45102847
181	0x3e4d2caa	0.20036569
182	0x3db96ebd	0.09054325
183	0x3d76e809	0.06027988
184	0xbef3622e	-0.47535843
185	0xbec218c3	-0.37909517
186	0xbe65e71b	-0.22451441
187	0xbdf02004	-0.117248565
188	0xbd3962a9	-0.045260105
189	0xbf2fb114	-0.68629575
190	0x3f03579b	0.5130555
191	0x3e2ab330	0.16669917
192	0xbec275b0	-0.37980413
193	0x3ef1a544	0.471964
194	0xbe8b2a07	-0.27180502
195	0xbd984a93	-0.07436099
196	0x3ea4a902	0.32160193
197	0xbdb0808e	-0.0861827
198	0xbdc62f86	-0.09677033
199	0x3dd7893e	0.10524224
200	0x3d60c364	0.05487384
201	0x3c155a66	0.009115791
202	0xbe254064	-0.16137844
203	0xbf13be26	-0.5771202
204	0xbeec3c59	-0.46139792
205	0xbde3953f	-0.11112451
206	0x3ec7412e	0.38916916
207	0xbf6f1048	-0.9338422
208	0x3d8b98fe	0.0681629
209	0x3da97510	0.08274281
210	0xbe990da7	-0.29893228
211	0xbd9d8890	-0.07692063
212	0xbde84d48	-0.11342865
213	0xbf16664b	-0.58749837
214	0xbf2432fb	-0.6414029
215	0xbdea4963	-0.11439779
216	0x3f22c471	0.63580996
217	0x3e9c21a4	0.30494416
218	0x3e51d843	0.20492654
219	0x3e9b60eb	0.3034738
220	0x3e97497b	0.2954825
221	0x3d8a9408	0.06766516
222	0xbe810459	-0.2519863
223	0x3f0900ac	0.5351665
224	0x3e93f433	0.28897247
225	0x3f7558db	0.9583871
226	0xbdab0900	-0.08351326
227	0xbe7e9441	-0.24861242
228	0xbc9cb42b	-0.01912888
229	0xbf633f5f	-0.8876857
230	0xbda79e53	-0.08184495
231	0x3eb26da9	0.3484929
232	0xbdf3e38e	-0.11908637
233	0x3e53786e	0.20651409
234	0x3d90d547	0.070719294
235	0x3e05113c	0.12994856
236	0xbdc22d45	-0.09481291
237	0xbf19689c	-0.59925246
238	0x3f06af05	0.5261081
239	0x3d547470	0.051868856
240	0xbd9a146a	-0.07523425
241	0x3dc82660	0.097729445
242	0xbe586494	-0.21132118
243	0xbf3f392a	-0.746966
244	0xbe56ea60	-0.20987844
245	0x3edb0b1c	0.42781913
246	0x3f029a6f	0.51016897
247	0x3ec77889	0.3895915
248	0xbd602f4d	-0.05473261
249	0xbe944448	-0.28958344
250	0x3e225daf	0.1585605
251	0x3dffe06c	0.12493977
252	0x3e446f10	0.19182992
253	0x3e16922f	0.14704202
254	0xbe0b034e	-0.1357548
255	0xbf07af05	-0.53001434

network_body.linear_encoder.seq_layers.2.bias f4 [32]
0	0xbdf518fc	-0.11967656
1	0xbd9600ed	-0.07324395
2	0xbd9762bc	-0.07391879
3	0xbd4bfec3	-0.049803507
4	0xbd546faf	-0.051864322
5	0x3db2fc00	0.087394714
6	0x3dbcbbf9	0.092155404
7	0xbe7420a0	-0.2384057
8	0x3d2b23c6	0.041782163
9	0xbe4ca0fb	-0.19983284
10	0xbe1534a0	-0.14570856
11	0xbe4de2a0	-0.20105982
12	0xbdcd4dda	-0.10024615
13	0xbd8144f8	-0.06311983
14	0xbef767e9	-0.48321465
15	0xbddcabf7	-0.10774987
16	0xbe041d42	-0.12901786
17	0xbcc03c3d	-0.023466224
18	0xbd99ac52	-0.075035706
19	0xbe97cce7	-0.29648516
20	0xbc6c8092	-0.01443495
21	0x3cf5567e	0.02994847
22	0x3da15dbd	0.07879207
23	0xbec07fe9	-0.37597588
24	0xbebccbb5	-0.36874166
25	0xbc670f27	-0.014102734
26	0xbdce8d7d	-0.100855805
27	0xbe0eb327	-0.13935529
28	0x3d69ba3b	0.05706237
29	0xbd08902d	-0.03334062
30	0xbbc7f3ce	-0.006102062
31	0xbdde7ad9	-0.10863275

network_body.linear_encoder.seq_layers.2.weight f4 [32, 32]
0	0x3c56eecf	0.01311846
1	0x3e3f7b16	0.18699297
2	0x3e46bd71	0.19408204
3	0xbe2af072	-0.16693285
4	0xbe4cd2bf	-0.20002268
5	0xbddea2bd	-0.108708836
6	0x3e8e1561	0.27750686
7	0x3d889eae	0.06670891
8	0xbe9f30d8	-0.31091952
9	0x3e1b5da4	0.1517244
10	0xbca79255	-0.020455519
11	0x3dd3c0b5	0.1033949
12	0x3e7e3985	0.2482663
13	0xbc4ea8ff	-0.012613534
14	0x3d6c3eae	0.057676964
15	0x3cc70ece	0.024299052
16	0xbdd3154d	-0.10306797
17	0xbe21df17	-0.15807758
18	0xbe854524	-0.26029313
19	0xbe68915c	-0.227117
20	0xbd49b199	-0.049241636
21	0x3ee950f2	0.4556957
22	0x3e37fcc1	0.17967512
23	0x3e1b6a83	0.1517735
24	0xbd8d555b	-0.06901046
25	0x3dbdfcd5	0.092767395
26	0xbe91538b	-0.2838405
27	0xbd8181a7	-0.06323557
28	0x3dc7ded1	0.09759296
29	0xbe022dc7	-0.12712775
30	0x3eafca46	0.3433401
31	0x3e01cc3b	0.12675564
32	0x3b817ad8	0.0039514117
33	0x3da2e439	0.07953686
34	0x3d7c57d5	0.0616072
35	0xbe8eedc3	-0.27915773
36	0xbe770f63	-0.24126963
37	0x3cd9d849	0.02659239
38	0x3e1542de	0.14576289
39	0xbce44396	-0.027864259
40	0xbe336b54	-0.17521411
41	0xbe42e3e3	-0.19032244
42	0x3e5e4ea4	0.21709687
43	0x3bcd4c8e	0.0062652295
44	0xbded3ed4	-0.11584249
45	0x3d23f810	0.040031493
46	0x3e98971b	0.29802784
47	0x3da05549	0.07828767
48	0xbd9f5dd9	-0.07781572
49	0xbca12346	-0.01967014
50	0x3c5ef399	0.013607883
51	0x3d044fc6	0.03230264
52	0xbe57ea16	-0.2108539
53	0x3da02a69	0.07820589
54	0x3cc00f81	0.023444893
55	0x3cc5ac6e	0.024130072
56	0x3d18c5dd	0.037298072
57	0x3e0c86d1	0.13723303
58	0x3dcf70ae	0.10128914
59	0xbc2e7d8e	-0.010650052
60	0xbd540799	-0.05176506
61	0x3d88870b	0.066663824
62	0xbea27b35	-0.31734625
63	0x3e8a49b5	0.2700936
64	0x3d6aac42	0.057293184
65	0x3e012437	0.12611471
66	0xbdacdf2c	-0.08441004
67	0xbd12b339	-0.03581545
68	0xbdfe1077	-0.12405484
69	0xbe10a3c1	-0.14124967
70	0xbe2548f5	-0.16141112
71	0xbe001557	-0.1250814
72	0xbd8ba345	-0.068182506
73	0xbe41bcfb	-0.18919747
74	0x3e4dbc7b	0.20091431
75	0xbc0e5c36	-0.008688977
76	0xbe82a999	-0.25520018
77	0xbd3620da	-0.044464923
78	0xbe5e2d6f	-0.21697019
79	0x3d165295	0.03669985
80	0x3e2157f2	0.15756205
81	0xbd34a7e7	-0.044105437
82	0x3de31959	0.11088819
83	0xbd9ed5db	-0.077556334
84	0x3e49a17e	0.1969051
85	0xbd00319d	-0.031297315
86	0xbd954be5	-0.07289866
87	0x3c7e22f7	0.015511266
88	0xbe01d3c6	-0.12678441
89	0x3d8f061d	0.06983588
90	0xbcb45754	-0.022014298
91	0xbeace41c	-0.33767784
92	0x3e1b734b	0.151807
93	0x3e611127	0.219792
94	0x3db27f71	0.08715714
95	0xbd2dfd74	-0.04247804
96	0x3dd49c17	0.10381334
97	0x3e802c04	0.2503358
98	0xbea85184	-0.3287469
99	0xbe572f1d	-0.21014066
100	0xbe018f42	-0.12652305
101	0xbae2492d	-0.001726424
102	0xbe2c4b95	-0.16825707
103	0xbdedfe0b	-0.116207205
104	0x3e84ed3b	0.25962242
105	0xbd442947	-0.047890928
106	0x3e1bb728	0.15206587
107	0x3dee2ad5	0.11629263
108	0xbd37a71f	-0.044837113
109	0x3e5fe28d	0.21863766
110	0xbe8db57e	-0.2767753
111	0x3d729341	0.059222464
112	0xbd870676	-0.06593029
113	0x3c9ecd4f	0.019385008
114	0x3db09228	0.08621627
115	0xbd52ae09	-0.051435504
116	0x3cd19963	0.025585836
117	0x3e88a9ce	0.2669205
118	0x3e405171	0.18781067
119	0x3e8bbcc5	0.27292457
120	0x3e6014e7	0.21882974
121	0x3e6b78fe	0.22995374
122	0xbddecae4	-0.10878542
123	0x3d73667f	0.05942392
124	0xbdf960de	-0.12176679
125	0x3da6c8cd	0.081437685
126	0x3d0e610d	0.034760524
127	0xbd60add4	-0.054853275
128	0x3e672374	0.22572118
129	0xbdaa9634	-0.0832943
130	0x3dd76461	0.10517193
131	0xbd9e2177	-0.07721227
132	0x3b4b25f3	0.0030997961
133	0x3c896de6	0.016776036
134	0xbc5e6e77	-0.013576142
135	0x3de9ff30	0.11425626
136	0x3e00b44a	0.12568775
137	0xbe6c02f2	-0.23047999
138	0x3d4fe0dd	0.050751556
139	0x3e3c5ace	0.18394014
140	0xbcbda570	-0.023150176
141	0x3e75fe96	0.24022898
142	0x3c07e16a	0.008293489
143	0x3e14a125	0.14514597
144	0xbc8a5aac	-0.016888939
145	0xbe93a5f1	-0.2883754
146	0xbd83f410	-0.064430356
147	0x3e911f75	0.28344312
148	0xbd44d94e	-0.0480588
149	0xbdef602e	-0.11688267
150	0xbcafc95b	-0.021458318
151	0xbe5433fa	-0.20722952
152	0x3c6745ea	0.01411579
153	0x3e0a3bb8	0.13499343
154	0xbe0f593c	-0.13998884
155	0xbe2d8297	-0.16944347
156	0x3dd036c9	0.101666994
157	0x3e426445	0.18983562
158	0x3dca38ec	0.09874138
159	0x3d896ebc	0.06710574
160	0x3db78d4d	0.08962498
161	0x3d15fed9	0.036619995
162	0x3d832112	0.06402792
163	0xbe8ca7d1	-0.27471784
164	0xbdd802aa	-0.10547383
165	0x3def1972	0.11674775
166	0xbd1fe6e6	-0.03903856
167	0xbc85f3ad	-0.016351545
168	0xbe42b087	-0.19012652
169	0xbe5f4acf	-0.21805881
170	0xbe02071b	-0.12698023
171	0x3d93a86d	0.07209859
172	0x3d285ed9	0.04110608
173	0x3e1c6cc1	0.15275861
174	0x3e6ec007	0.2331544
175	0x3d0f8156	0.035035454
176	0xbdd85149	-0.10562379
177	0xbe3d44dc	-0.18483299
178	0xbd94965d	-0.07255242
179	0xbe0598e8	-0.1304661
180	0xbdf12ce3	-0.117761396
181	0x3cc4ec2a	0.024038393
182	0xbdb6ce7d	-0.08926103
183	0xbe100c1e	-0.14067122
184	0xbdf3530c	-0.11881074
185	0x3e60886f	0.21927045
186	0xbc3c3243	-0.011486593
187	0x3e22ea15	0.15909608
188	0x3c7fe6cb	0.01561899
189	0x3cfffb51	0.031247767
190	0xbc0a8ff4	-0.008457173
191	0xbdfc9880	-0.123337746
192	0x3e51a531	0.20473172
193	0x3d908b41	0.070578106
194	0xbe24b833	-0.16085891
195	0xbc79c962	-0.015245767
196	0x3e052796	0.13003382
197	0x3ebd466b	0.36967787
198	0x3dfaac2d	0.12239871
199	0xbe2536f5	-0.16134246
200	0xbecf134a	-0.40444404
201	0x3f00587a	0.50135005
202	0x3ef7d474	0.48404276
203	0xbd73f11a	-0.059556104
204	0xbca6e4d1	-0.02037278
205	0xbe91d256	-0.28480786
206	0xbec06f2b	-0.37584814
207	0xbde5e005	-0.11224369
208	0x3e193368	0.14961016
209	0x3e30ef3d	0.17278762
210	0xbe96e583	-0.2947198
211	0xbea2ce7e	-0.31798166
212	0xbd3c8671	-0.04602665
213	0xbd45f36f	-0.04832786
214	0xbe1641a0	-0.14673471
215	0xbe25d0ca	-0.16192928
216	0xbe216b30	-0.15763545
217	0x3d8f5fca	0.07000692
218	0xbd9421da	-0.07233019
219	0x3c840ccf	0.016119389
220	0xbe6899ed	-0.22714968
221	0xbddac2b2	-0.106816664
222	0x3ced16a3	0.028941458
223	0xbd193069	-0.037399683
224	0x3c0c0545	0.008546178
225	0xbde32e27	-0.11092787
226	0x3e08b6f3	0.1335104
227	0x3e97d305	0.29653183
228	0xbe43c5a2	-0.1911836
229	0xbdcc721f	-0.09982704
230	0xbe980d5e	-0.29697698
231	0x3d398a1c	0.045297727
232	0xbdc03e3e	-0.09386872
233	0xbea67865	-0.3251373
234	0xbe11f9c7	-0.14255439
235	0x3e029ae5	0.127544
236	0x3da96f4e	0.08273183
237	0x3e15a749	0.14614595
238	0xbdac81d6	-0.08423202
239	0xbd180d5e	-0.037122123
240	0xbd836452	-0.06415619
241	0x3e628d93	0.22124319
242	0x3dc46870	0.09590232
243	0xbdcfa265	-0.10138396
244	0xbda4aa45	-0.08040289
245	0x3d99389c	0.074815005
246	0xbce45a7f	-0.027875183
247	0xbeb0a4d1	-0.34500745
248	0x3e2cbde0	0.16869307
249	0x3e478271	0.19483353
250	0x3c2c7268	0.010525323
251	0xbdfa6393	-0.122260235
252	0x3e86abfe	0.26303095
253	0x3e037cd2	0.12840584
254	0x3e63c0e3	0.22241549
255	0xbd4215dc	-0.047384128

network_body.vector_processors.0.normalizer.running_mean f4 [10]
0	0x00000000	0.0
1	0x3eedd10b	0.4644855
2	0x00000000	0.0
3	0x00000000	0.0
4	0x00000000	0.0
5	0x00000000	0.0
6	0x00000000	0.0
7	0x00000000	0.0
8	0x3e9be34d	0.30446854
9	0x00000000	0.0
