Assets/AI/_old model/Param1.onnx (onnx, 3866 bytes, 7 tensors)

55 f4 [10]
00000000: 6b87 703e 74cc 8a3e 605c 893e 7460 943e
00000010: 6645 653e e17f 573e 1871 5a3e 21c8 223e
00000020: a04b 813e a00f 483e
0.23489158 0.2710911 0.2682829 0.28979838 0.22389755 0.21044876 0.21332204 0.15896656
0.2525301 0.1953721

action_model._continuous_distribution.log_sigma f4 [1, 2]
00000000: 46e9 873b cb3e 203c
0.0041476814 0.009780596

action_model._continuous_distribution.mu.bias f4 [2]
00000000: e61b b73b a3b6 cdbb
0.0055880425 -0.0062778755

action_model._continuous_distribution.mu.weight f4 [2, 32]
00000000: 738c d33c 3d7d 243d cd53 66bc 2e61 523d
00000010: 969b 8f3c 61f6 aa3c 048f 463c 71c6 d3bc
00000020: d323 923c 5990 b03c c8e6 debc f137 86bc
00000030: 33d3 9bbc 51aa e5bc d2c7 173d 6c06 303d
00000040: 6e68 1a3d cbc3 e7bb bc4b 473c 1d20 d03c
00000050: ebaf ae3c 942d 55bc 526b b4bb e1a4 6439
00000060: 038a e93c 9844 c7bc d74c c0bc c9c8 5cbb
00000070: b79b 41bb a27b 883d 8586 8cbb 59f5 70bc
00000080: 0b56 e3bc 5107 79bc e497 a23c cf33 2b3c
00000090: d2cd 103c f47d a13c 7656 b13b 441b c8bc
000000a0: 96ce 39bd 9393 d4bc 8cfb 283d e950 db3b
000000b0: 3079 39bd d124 9cbc 72c0 68bc fb67 f2bc
000000c0: c1ae 4abc d6ce af3c 7fae 1abd d1dd 963c
000000d0: b0d7 623c 71fb 5abd c4f1 203d 1032 823d
000000e0: 0cf6 dc3b a6d4 62bc 88ad 66bc 655b 9ebc
000000f0: 547c be3c 76cf db3d dd75 64bc 2b5c 403d
0.025823807 0.0401585 -0.014058066 0.05136221 0.017530244 0.020869436 0.0121190585 -0.02585146
0.017839348 0.021553205 -0.027209654 -0.016384097 -0.019021606 -0.028035315 0.037055798 0.042974874
0.03769725 -0.007072901 0.012164053 0.025405938 0.021324119 -0.013011355 -0.0055059576 0.00021805197
0.028508192 -0.0243247 -0.02347414 -0.0033689013 -0.0029542276 0.06664206 -0.004288497 -0.014706933
-0.02775099 -0.015199498 0.019847818 0.010449364 0.008838134 0.01971338 0.0054119183 -0.024427064
-0.04536303 -0.025949275 0.04125552 0.006692995 -0.04528159 -0.019060524 -0.014206039 -0.029590597
-0.012370766 0.021460932 -0.03776407 0.018416317 0.013845369 -0.05346245 0.039293066 0.06357205
0.0067431983 -0.013844645 -0.014079459 -0.01933069 0.023252644 0.107329294 -0.013944116 0.0469629

network_body.linear_encoder.seq_layers.0.bias f4 [32]
00000000: 4eef 053c 4edf c83b da55 a4bb c527 d23a
00000010: fc2a e5b9 f98f 09bb 6597 373b 853f 1abb
00000020: 7750 863b 3a47 ae3b 023e 01bc 2e48 653a
00000030: e976 af3b f09b c6ba 1526 f73b 6ac1 cb3b
00000040: 97c1 fd3a 74fe 66ba 172c 233c cc79 8fba
00000050: 50b1 5dbb 924d 023c 090f dab7 4605 eabb
00000060: eae3 403b 6462 a83a fa82 86ba db80 523b
00000070: c66a 1dbc fe9d 91bb 955e 21bb d70f ffba
0.00817473 0.0061301356 -0.005015117 0.0016033581 -0.0004371031 -0.0020990355 0.0028013822 -0.0023536396
0.0040989476 0.0053185495 -0.007888319 0.00087464123 0.0053547514 -0.0015152674 0.0075423815 0.006218125
0.0019360062 -0.000881172 0.009959242 -0.0010946332 -0.003382761 0.0079530645 -2.5994626e-05 -0.007141742
0.0029432722 0.0012846706 -0.0010262423 0.003212026 -0.009607976 -0.004443883 -0.0024623026 -0.0019459677

network_body.linear_encoder.seq_layers.0.weight f4 [32, 10]
00000000: 14fe 113f a689 e6bd dc05 783d ca75 8cbc
00000010: 32ae febe 294e 35bf ff02 58be 6899 a13d
00000020: 1c48 903e 7386 25be e839 793c 2415 b33e
00000030: eb91 4d3d 28b1 95be 9a52 aebd 113e 693e
00000040: 1808 093d e87d ae3d 22c6 89bd 310f 35be
00000050: c038 a7be e991 49bd 7b40 28be f850 083f
00000060: fadf 68be abb9 5cbe c558 d43b 4e2c 083f
00000070: 1c24 aebe 3a7d 083f 7eb3 99be 0d9c df3d
00000080: c33b 8e3d 0736 12bd 4a1a a93e 7124 e83d
00000090: 7cd0 0f3e 01d2 46be c0b4 1a3e 51fd 08bf
000000a0: bb52 d63d 137c e1bd d446 ac3e 4c99 a03d
000000b0: 8c07 aa3d 55ac 5e3d 021b 903e 481d 11bc
000000c0: 50f8 a3be 587d a23d 4b84 fcbe 34dc edbe
000000d0: b7ea 583e c05c adbc 3ef9 5c3e 5b15 34be
000000e0: 35a6 623e ead6 e23e 4512 38be af51 cbbd
000000f0: a1c4 11bf 7c7b f8bd aa00 023f d65f 043f
00000100: 0dae dcbe cf49 be3e edd6 46bc 7ed9 c03e
00000110: fda7 eabd d098 1b3e 7022 c2be ebdd 573f
00000120: 61d7 19be 70ff 073e 26b4 7abe 57d7 85bc
00000130: 9456 2c3e 1b36 173e 02d0 4ebe 2456 033f
00000140: 3797 eebe 410d 69be 9d2c 263e ddec 903e
00000150: 9ec9 05bf 5a8d df3e 2bc8 b4be 724a 1a3e
00000160: 586d d33d 54a8 143e 7bec f23e b86c aabd
00000170: 1aec cb3d 8a29 e93e 23ae ee3c 63ec b23e
00000180: 6ea0 ffbd 8320 d53e db21 86bd 93eb b9bc
00000190: a4ac 26be 44d6 19be 5adb c0be f092 ec3e
000001a0: 1fdb dcbe c393 a03c b28f b03e 7496 dbbd
000001b0: 4b52 913d 0f0a cd3e 1bca ac3d f8c8 febe
000001c0: 4711 3dbe 5b55 03bf e72e 573d 7b8c d73d
000001d0: 1ed0 cfbc 3691 77be d1d0 23bf ff12 0abf
000001e0: d556 0a3f 7cc7 103e 0bcf 8a3e 1210 ecbe
000001f0: 38b4 2e3e dbb6 f0bd 3837 a83e a704 bd3d
00000200: 8bfa 85be fd17 3cbf 6c2d dabd 44a9 5f3e
00000210: f3de 4dbc 575e 863e c919 41be 15de 91be
00000220: db6a fa3e da56 d4bd 50cd cbbc e89d f5bd
00000230: a678 f4bd b8c4 933d 14e2 a4be beef 17bf
00000240: c978 63be 0fc7 443e 80a2 303d 8006 3cbe
00000250: 10f9 f43e c12c 7fbb 718a 0a3f 472f 153e
00000260: e42a d0bd b47c 0b3f 3ae1 17be 202e 29bc
00000270: 0466 73bf 6f51 16be b3d0 813e 6c8d 9fbe
00000280: 7984 923e ff8a 0a3f 52d8 73be 7f8f 143e
00000290: 5c73 f03e a668 4bbe 8c40 c1be a96e 6d3e
000002a0: ff67 7cbd e1e6 16be 1762 6dbe 9a0b 8abe
000002b0: 0599 cdbe 5b3a 013d e38c 8e3e 607a b03e
000002c0: 1068 9a3e c688 3f3e 461d 6bbe d771 b5be
000002d0: 8284 04be 215f 79bd 0f3e 443e 9970 323d
000002e0: 9b7e 8d3e 13d2 523e 2994 8e3d 18ad aabe
000002f0: e9fd 5e3e d193 c3bd 942e bdbd 7c2c c4bc
00000300: 61f3 5bbe 9f5f 25be a8ee 47be 232e 9bbe
00000310: e88f 5f3d 95bd f73d 018e b03e e4bb 23bd
00000320: 826b f0be 2565 c43d 0fc0 733e 28ba 8a3e
00000330: a2cb 87be fce4 8bbe aea9 99bd 72bb 4cbe
00000340: ee5d 9fbe c2f7 8dbe 471a 88be 4698 843e
00000350: f1dc a83e a482 85be 14f2 c43d 05b6 36be
00000360: d13c d03e a749 19be 3e35 acbd f7a1 1e3e
00000370: 06b7 b23e f1bd 1bbf d2b3 1e3e 1b80 ccbe
00000380: e447 c93e 9712 323e 506c 423e 96c3 983e
00000390: e274 c0be d8ab e5be 7419 c63d e8e0 bd3e
000003a0: b653 213f 2103 813d 94ee 42be 3c5d d33e
000003b0: 448e 3a3e 381f 613e 893c fd3e 67ec 50bd
000003c0: c9a3 28bf dbb6 08bf aac8 81bc 246f a43e
000003d0: 3714 8f3e 4df6 503d 8e3c da3e 1ce8 883e
000003e0: d27c cbbe 2243 e7bd 91d0 11be 013e 15be
000003f0: b1c8 45bd cac8 163f c48f c6be 7d24 cebe
0.5702832 -0.11256723 0.060552463 -0.01714601 -0.49742275 -0.7082239 -0.21094893 0.07890588
0.28180015 -0.1616457 0.01521156 0.34977067 0.050187986 -0.29236722 -0.08511849 0.22777583
0.033454984 0.085201085 -0.06727244 -0.17681576 -0.32660484 -0.049211416 -0.16430847 0.5324855
-0.2274169 -0.21555202 0.0064803087 0.53192604 -0.34011924 0.5331608 -0.30019754 0.10918436
0.069449924 -0.035696056 0.3302787 0.11335076 0.14044374 -0.19416048 0.15108013 -0.5351153
0.10464998 -0.110099934 0.33647788 0.07841739 0.08302221 0.054363567 0.28145605 -0.008857079
-0.32025385 0.07934064 -0.49319682 -0.46457064 0.21183287 -0.02116239 0.21579453 -0.17586271
0.22133715 0.4430459 -0.1797572 -0.09927689 -0.56940657 -0.12132928 0.50782263 0.51708734
-0.4310154 0.37165686 -0.012136203 0.37665933 -0.114578225 0.15195012 -0.379169 0.84322995
-0.15023567 0.13281035 -0.24482784 -0.016338034 0.16829902 0.14766733 -0.20196536 0.51303315
-0.46599743 -0.22758962 0.16227956 0.28305712 -0.5226077 0.4366253 -0.35308966 0.15067461
0.1032359 0.14517337 0.47446045 -0.08321518 0.09957142 0.45539504 0.02913577 0.34945974
-0.124817714 0.41626367 -0.06549426 -0.022695338 -0.16276795 -0.15023142 -0.37667352 0.46205854
-0.43135926 0.019601708 0.3448463 -0.10722056 0.07095774 0.40046737 0.08436986 -0.49762702
-0.18463622 -0.5130212 0.052534964 0.105248414 -0.025367793 -0.24176487 -0.63990504 -0.53935236
0.54038745 0.14138597 0.27111086 -0.4610601 0.17060935 -0.11753627 0.3285463 0.09229403
-0.26167712 -0.73474103 -0.10653195 0.21841913 -0.012565362 0.2624385 -0.18857493 -0.28489748
0.4890965 -0.10368128 -0.024878174 -0.11993009 -0.11937074 0.072152555 -0.32203734 -0.5935019
-0.22214045 0.1921656 0.043123722 -0.18361855 0.4784627 -0.0038936588 0.54117495 0.14568816
-0.10164431 0.54487157 -0.14832011 -0.010325938 -0.9507754 -0.14679502 0.25354537 -0.31162584
0.28616694 0.5411834 -0.23812988 0.14507864 0.46963012 -0.19864139 -0.37744558 0.23186745
-0.061622616 -0.14736511 -0.2318195 -0.26961976 -0.40155807 0.031549793 0.27841863 0.34468365
0.30157518 0.18704519 -0.22960386 -0.35438415 -0.12941173 -0.060881738 0.19164298 0.043564413
0.27635655 0.2058795 0.06961853 -0.33335185 0.21776547 -0.09549678 -0.092374 -0.023946993
-0.2147956 -0.16149758 -0.19524634 -0.30308637 0.0545806 0.12096707 0.3448334 -0.03997411
-0.46957022 0.09589604 0.23803733 0.2709515 -0.26522547 -0.2732314 -0.07503067 -0.1999338
-0.3112635 -0.27728087 -0.26582548 0.25897425 0.32981065 -0.26076233 0.09616485 -0.17842872
0.406714 -0.14969502 -0.08408593 0.15491472 0.3490526 -0.608367 0.15498284 -0.39941487
0.3931266 0.17389904 0.1898663 0.2983672 -0.37589175 -0.4485767 0.096728235 0.37085652
0.6301836 0.06299425 -0.19036323 0.4128207 0.18218333 0.21984565 0.49460247 -0.0510067
-0.65874916 -0.53404015 -0.015842754 0.32116044 0.2794511 0.05101614 0.42624325 0.26739585
-0.39743668 -0.112921014 -0.14239718 -0.14574434 -0.048287097 0.5890013 -0.3878156 -0.40262213

network_body.vector_processors.0.normalizer.running_mean f4 [10]
00000000: 1d06 d83d a088 183e 3b64 243e 49fe 283e
00000010: 6950 cd3d 0c99 9f3d ba2a b03d e710 433d
00000020: ca03 f93d 2936 8b3d
0.10548041 0.14895868 0.1605386 0.16503252 0.10025103 0.07792863 0.086018994 0.04762354
0.12158926 0.067974396
