Assets/AI/_old model/Param0.onnx (onnx, 3866 bytes, 7 tensors)

55 f4 [10]
0	0x3e8d722e	0.27626175
1	0x3e8c3062	0.27380663
2	0x3e6c51b4	0.23078042
3	0x3e9dbe03	0.3080903
4	0x3e8af040	0.2713642
5	0x3e2db89a	0.16964951
6	0x3e6ce5d9	0.23134555
7	0x3e53b29d	0.20673604
8	0x3e6f51d3	0.23371057
9	0x3e2c375f	0.16817997

action_model._continuous_distribution.log_sigma f4 [1, 2]
0	0xbc1b9524	-0.009496007
1	0x3c05420b	0.008133422

action_model._continuous_distribution.mu.bias f4 [2]
0	0x3b7150bf	0.003682181
1	0xba56026f	-0.0008163815

action_model._continuous_distribution.mu.weight f4 [2, 32]
0	0x3af50442	0.0018693286
1	0xbbdf668c	-0.0068176445
2	0x3c807181	0.015679123
3	0x3d84cde9	0.06484587
4	0xbc93176c	-0.017955504
5	0x3c22b623	0.00993112
6	0x3d11f2bb	0.035631876
7	0x3d7aa2e8	0.061190516
8	0xbce9c82c	-0.028537832
9	0x3ca619a2	0.020275895
10	0x391d1d74	0.00014983659
11	0x3d41d208	0.047319442
12	0xbcacf0b8	-0.021110877
13	0xbca277f1	-0.019832583
14	0xbc97ca29	-0.018529015
15	0x3af1b07f	0.0018439441
16	0x3cdde283	0.027085548
17	0x3c0dc43c	0.008652743
18	0x3d069515	0.03285702
19	0x3c9118cd	0.017712021
20	0x3d1a4ec3	0.03767277
21	0x3da59f03	0.0808697
22	0xbd450661	-0.048101787
23	0xbd85fb50	-0.06542075
24	0xbd326daf	-0.043561634
25	0xbc5dcf4b	-0.013538192
26	0x3d1c00e1	0.038086776
27	0x3c56f18a	0.013119111
28	0xbd2f8712	-0.042853422
29	0x3cdb6b9f	0.026784716
30	0xbd5f429f	-0.054506894
31	0xbc8f5d9f	-0.017500697
32	0xbc95388e	-0.018215444
33	0xbd13c94e	-0.03608065
34	0xbd1a60a3	-0.037689816
35	0xbb921712	-0.0044583166
36	0x3ce21c92	0.027601514
37	0xbd86118f	-0.06546318
38	0x3cbab66a	0.02279206
39	0xbbaa88f6	-0.0052043153
40	0x3d7a13bf	0.061053988
41	0x3d25ee7b	0.040510636
42	0x3d59d8e2	0.05318535
43	0xbd6bfe4d	-0.057615567
44	0x3dac07b9	0.083999105
45	0xbd68125c	-0.056658134
46	0x3ba9a4b3	0.0051771044
47	0x3d968372	0.0734929
48	0x3c882c4d	0.016622687
49	0xbd093d92	-0.033505984
50	0x3dad6ae5	0.08467654
51	0x3cfa27df	0.03053659
52	0xbc81304e	-0.015770104
53	0x3d4b1bdb	0.049587112
54	0x3c8a97bb	0.016918054
55	0x3c21a5ac	0.009866159
56	0xbd189b0c	-0.03725724
57	0x3c230922	0.009950908
58	0xbca2a742	-0.019855145
59	0x3d1fac07	0.038982417
60	0xbcd1021c	-0.025513701
61	0x36fbb60c	7.501576e-06
62	0x3c2b84c1	0.010468663
63	0xbd459f9e	-0.048247926

network_body.linear_encoder.seq_layers.0.bias f4 [32]
0	0xb78b0951	-1.657443e-05
1	0x3ab97b3d	0.0014151108
2	0x3a1a9636	0.0005897017
3	0x3bd09850	0.0063658133
4	0xbbd48b27	-0.006486315
5	0x3b36e6de	0.0027908604
6	0x3a237426	0.0006235264
7	0x3b7f3041	0.0038938674
8	0x3af7b149	0.001889744
9	0x3ae1f125	0.0017238004
10	0xbb65b695	-0.0035051454
11	0x3bcce53a	0.006252912
12	0x3b29beee	0.0025901156
13	0xba5504af	-0.0008126003
14	0xbaf5120f	-0.0018697398
15	0x3b35f910	0.002776686
16	0x3a96cc8e	0.0011505054
17	0xbb01ecdd	-0.001982502
18	0x3b2dfc44	0.0026548067
19	0x3a45c5c9	0.0007544426
20	0x3b9a7c0f	0.004714496
21	0x3a31f065	0.0006787836
22	0xbb6dc0c9	-0.003627824
23	0xbae322dd	-0.0017329116
24	0xb962258e	-0.0002156703
25	0xbb16744e	-0.0022957507
26	0x3b7d2266	0.003862524
27	0x39ef2c47	0.00045618622
28	0xbb132cca	-0.0022457116
29	0x3b307b78	0.0026929062
30	0xba0c8f16	-0.00053618976
31	0x3b491201	0.0030680897

network_body.linear_encoder.seq_layers.0.weight f4 [32, 10]
0	0xbef727b2	-0.48272473
1	0x3ea99330	0.33120108
2	0xbcc4af4a	-0.024009366
3	0x3ed1a36f	0.40945002
4	0x3ebc77f1	0.36810258
5	0x3daa7953	0.08323922
6	0x3d23f013	0.040023874
7	0x3e95729b	0.29189
8	0xbe25995b	-0.16171782
9	0x3e757334	0.23969728
10	0xbe6a8733	-0.22903137
11	0xbcfca92f	-0.030842392
12	0xbdbcfb7f	-0.092276566
13	0x3e42f7e6	0.19039878
14	0xbdcb4b1a	-0.09926434
15	0xbdfb8329	-0.12280876
16	0x3cab6d35	0.020926097
17	0xbd38a49c	-0.04507886
18	0xbe7e54af	-0.24836992
19	0x3d46b4ed	0.048512388
20	0x3e28fe4f	0.16503261
21	0xbe483296	-0.19550547
22	0xbe1d5179	-0.1536311
23	0x3efecfa3	0.4976779
24	0xbe6ad444	-0.22932535
25	0xbf23342f	-0.637515
26	0xbe52e86a	-0.20596471
27	0x3f02eeb4	0.5114548
28	0x3d8caa67	0.06868439
29	0xbe81905f	-0.2530546
30	0xbe9645cb	-0.29350123
31	0x3df0b3ee	0.11753069
32	0x3e84906b	0.25891432
33	0x3d9ad301	0.07559777
34	0x3eb42748	0.3518622
35	0xbf3d18f7	-0.7386622
36	0x3d795df5	0.06088062
37	0xbe304594	-0.17214042
38	0xbdaf64d6	-0.08564155
39	0xbd88f479	-0.066872545
40	0xbe2befcd	-0.16790695
41	0x3e748959	0.23880519
42	0xbe44bff4	-0.1921385
43	0x3d458f21	0.0482322
44	0xbce4b0e1	-0.027916374
45	0x3f1168d1	0.5680056
46	0x3ec3325c	0.3812436
47	0xbd3eb219	-0.046556566
48	0x3e756f6a	0.23968282
49	0xbc21704d	-0.009853435
50	0xbdfb9d57	-0.122858696
51	0x3f12c5c8	0.5733304
52	0xbd86d608	-0.06583792
53	0xbe4af3fd	-0.19819637
54	0xbeb06921	-0.34455207
55	0xbe01d348	-0.12678254
56	0x3e703825	0.23458917
57	0x3e3f0a80	0.18656349
58	0xbeb53205	-0.35389724
59	0x3eca7888	0.39545083
60	0x3e5a5fb9	0.21325578
61	0x3f381341	0.7190438
62	0xbdd48a21	-0.103779085
63	0xbe29c1d9	-0.16577853
64	0x3f31c59d	0.6944216
65	0x3e0023c0	0.12513638
66	0xbdf56b71	-0.119833834
67	0x3ed81f46	0.4221136
68	0x3eca830b	0.39553103
69	0xbdeee5d4	-0.1166493
70	0xbf1f8a65	-0.6232055
71	0x3deb889d	0.11500666
72	0x3ddbcc05	0.10732273
73	0x3e9762ff	0.29567716
74	0xbf1232a7	-0.5710854
75	0x3e82988f	0.25507018
76	0xbe2be0b8	-0.16784942
77	0x3c90272d	0.017596805
78	0x3e15ac61	0.14616539
79	0x3eaff295	0.34364763
80	0xbda3cdd8	-0.07998246
81	0xbd47ff52	-0.048827477
82	0x3e9b8ac0	0.30379295
83	0x3d3613b0	0.04445237
84	0xbe3fa1cf	-0.18714069
85	0xbd796aac	-0.060892746
86	0xbdf44360	-0.11926913
87	0x3f1cd3fa	0.6126095
88	0x3e75f525	0.24019296
89	0xbe4a78cb	-0.19772641
90	0x3d37636e	0.044772558
91	0xbeace959	-0.3377178
92	0xbdad3a0d	-0.08458338
93	0xbe41087c	-0.18850893
94	0xbea6e4e3	-0.32596502
95	0xbdb50bf1	-0.08840168
96	0xbd623189	-0.05522302
97	0x3db28fec	0.08718857
98	0xbee8803b	-0.45410332
99	0x3dbc6814	0.09199539
100	0xbdd96d93	-0.10616603
101	0xbcdcbe82	-0.02694631
102	0xbd0bc1fd	-0.03412055
103	0xbd8f1d82	-0.0698805
104	0xbe7b4089	-0.24536337
105	0xbda256ff	-0.079267494
106	0xbd898960	-0.06715655
107	0xbe8413c0	-0.25796318
108	0x3d765b8f	0.06014591
109	0x3f104a51	0.563634
110	0xbe9c7bf4	-0.3056332
111	0xbdaa7ed4	-0.08324972
112	0xbe4941d6	-0.1965402
113	0x3d013e74	0.0315537
114	0xbdd39ffe	-0.103332505
115	0x3f1ae783	0.6050951
116	0xbea47de0	-0.32127285
117	0xbe9e805e	-0.3095731
118	0x3a156bcf	0.00056999637
119	0x3dc5122a	0.09622605
120	0x3e9cdda8	0.3063786
121	0xbeb72d19	-0.35776594
122	0x3e16ffc4	0.14746004
123	0x3d84e578	0.0648908
124	0x3ec725e6	0.38896102
125	0x3dbb0f41	0.09133769
126	0x3df2dc1b	0.11858388
127	0x3c813884	0.015774019
128	0xbeaffd2f	-0.3437285
129	0xbf37032b	-0.7148921
130	0xbd9c0103	-0.076173805
131	0xbd61a944	-0.055093065
132	0x3ebbf216	0.36708134
133	0xbe701e25	-0.23448999
134	0x3ec2be06	0.380356
135	0x3eb2b190	0.34901094
136	0xbf224c07	-0.6339726
137	0xbe405031	-0.1878059
138	0x3e5fdac6	0.21860799
139	0xbcd1a09b	-0.025589278
140	0x3e970f45	0.29503837
141	0xbbc28603	-0.0059363856
142	0xbe3c191f	-0.18368958
143	0xbdfebcdd	-0.124383666
144	0x3dc5ffcb	0.09667929
145	0x3dc52a37	0.096271925
146	0xbefc06e8	-0.4922402
147	0x3e527fa0	0.20556498
148	0xbe998a07	-0.2998812
149	0x3ee7054e	0.45121235
150	0xbe813028	-0.25232053
151	0xbe258c08	-0.16166699
152	0x3f2dd009	0.6789556
153	0x3eb3e552	0.35135895
154	0x3d039f1d	0.032134164
155	0xbeae3d42	-0.3403111
156	0x3ef77d2c	0.48337686
157	0x3f0fdbc8	0.56194735
158	0xbed9c6d9	-0.4253452
159	0xbeae50fe	-0.34046167
160	0xbe479b38	-0.19492805
161	0x3e9f2363	0.31081685
162	0x3d49dc5d	0.04928242
163	0x3f06d1e6	0.5266403
164	0xbf08cb91	-0.5343562
165	0xbec9d86b	-0.39422926
166	0x3e508bf5	0.2036589
167	0xbd3d8423	-0.046268594
168	0x3d3a7e9a	0.045530893
169	0xbcf080f3	-0.029358363
170	0xbed17d74	-0.40916026
171	0xbeddabdb	-0.43295178
172	0x3d2c10c3	0.042008173
173	0x3d991c7d	0.07476137
174	0x3f0fd289	0.56180626
175	0xbea6a77f	-0.32549664
176	0xbec2f76a	-0.38079387
177	0x3e00ce46	0.12578687
178	0x3dd66adc	0.104696006
179	0xbd9924cc	-0.074777216
180	0xbec49214	-0.383927
181	0xbe5b422b	-0.2141196
182	0x3e888bba	0.26669103
183	0xbe52012f	-0.20508264
184	0xbe9510f3	-0.29114494
185	0xbe8c4b43	-0.2740117
186	0x3df1fb15	0.11815468
187	0x3ea579b6	0.3231942
188	0x3d9cca6a	0.07655795
189	0x3d7d4ce4	0.061840907
190	0x3f32d276	0.6985239
191	0x3e862469	0.26199654
192	0xbeacda92	-0.33760506
193	0xbe0cacc9	-0.13737787
194	0x3dff43e5	0.12464122
195	0x3ea22597	0.31669304
196	0x3f1d9547	0.61555904
197	0x3dcc0e59	0.09963674
198	0xbd001812	-0.031272955
199	0x3e8c3177	0.2738149
200	0xbef89128	-0.48548245
201	0xbc368d97	-0.011142156
202	0x3e273dea	0.16332212
203	0x3e9b065e	0.30278295
204	0xbcd85434	-0.026407339
205	0x3e84d04a	0.25940162
206	0x3ec9e6d8	0.39433932
207	0x3ce1758d	0.027521873
208	0x3ed04479	0.4067724
209	0xbddbabf5	-0.107261576
210	0xbd5d41a7	-0.05401769
211	0x3da38413	0.079841755
212	0xbf1d1556	-0.6136068
213	0xbeebfa8e	-0.46089596
214	0x3eb835e6	0.3597862
215	0xbdb2184d	-0.08696041
216	0x3c9dcf94	0.01926402
217	0xbd56fde5	-0.052488226
218	0x3e674f1a	0.22588769
219	0xbd976d37	-0.07393878
220	0xbe9bcd39	-0.3043001
221	0xbeeeb07d	-0.46619025
222	0xbd153a7b	-0.036432724
223	0x3dd1e530	0.10248792
224	0x3eca4bf2	0.39511067
225	0xbec9a276	-0.3938176
226	0x3e0051a7	0.12531148
227	0x3f6ee7f0	0.9332266
228	0xbeb4df4e	-0.35326618
229	0x3deacc94	0.114648014
230	0x3e36418e	0.17798445
231	0x3e15f443	0.1464396
232	0xbe25c4d2	-0.16188362
233	0xbe92c61f	-0.2866678
234	0xbdc0bf06	-0.09411435
235	0xbed693e0	-0.41909695
236	0xbe907a17	-0.28218147
237	0x3e41ff43	0.18945031
238	0xbe4bc769	-0.19900288
239	0xbe8a5a58	-0.27022052
240	0x3d8aeeb1	0.06783808
241	0xbde873ea	-0.11350234
242	0xbe736d35	-0.23772128
243	0xbdc1344c	-0.09433803
244	0x3e632058	0.22180307
245	0xbeedbcf2	-0.46433216
246	0xbe1cf287	-0.15326892
247	0x3ec8ec6b	0.39242873
248	0x3efc7e8b	0.49315295
249	0xbf2b13a7	-0.6682686
250	0x3de0586d	0.10954366
251	0xbdc4e774	-0.09614459
252	0x3e8e1c54	0.27755988
253	0xbd5f5092	-0.054520197
254	0xbeebd5ef	-0.46061656
255	0x3e862d14	0.26206267

network_body.vector_processors.0.normalizer.running_mean f4 [10]
0	0x3e17405c	0.14770645
1	0x3e241b28	0.16025984
2	0x3dded1e2	0.10879876
3	0x3e58b9ad	0.2116458
4	0x3e19451c	0.1496777
5	0x3d55ba96	0.052179895
6	0x3dc9273f	0.09821939
7	0x3da76f89	0.081755705
8	0x3dc62340	0.09674692
9	0x3d542746	0.051795267
