Assets/AI/_old model/Termite.onnx (onnx, 8436 bytes, 9 tensors)

62 f4 [10]
0.00081619114 0.00081619114 0.00081619114 0.32071626 0.00081619114 0.00081619114 0.31907505 0.00081619114
0.00081619114 0.00081619114
00000000: a9f5 553a a9f5 553a a9f5 553a ec34 a43e
00000010: a9f5 553a a9f5 553a ce5d a33e a9f5 553a
00000020: a9f5 553a a9f5 553a

action_model._continuous_distribution.log_sigma f4 [1, 2]
-0.20176022 -0.21915004
00000000: 3b9a 4ebe de68 60be

action_model._continuous_distribution.mu.bias f4 [2]
0.23401552 0.0076928763
00000000: c4a1 6f3e 8614 fc3b

action_model._continuous_distribution.mu.weight f4 [2, 32]
0.021395268 0.013855158 0.0273325 0.08175809 0.021874793 -0.016087707 -0.06779433 -0.16272764
-0.014814676 -0.1466022 0.047608707 -0.011717049 0.00016006206 -0.09771299 0.2086778 0.027418396
0.022880627 0.007423087 -0.037183467 -0.04975593 0.00568114 -0.034083534 -0.018714983 -0.020866573
0.0065963725 0.016848162 -0.040643126 -0.035315536 -0.029538088 0.019268708 -0.004802886 0.019707479
-0.031948045 0.028186908 0.07129816 0.0017182404 0.088898204 0.10036395 -0.014373332 0.08541184
-0.09695031 -0.18636052 0.053106014 0.03712085 0.030760974 0.07421636 0.24591462 -0.046324342
0.076179616 0.051462293 -0.061500944 -0.041636147 0.11012044 -0.08228436 -0.06758526 0.026045388
-0.051439516 0.09547497 -0.14023581 -0.05733859 0.026861407 0.03617133 0.046744525 0.092544384
00000000: 2145 af3c bf00 633c 68e8 df3c c970 a73d
00000010: c432 b33c 5eca 83bc c1d7 8abd 13a2 26be
00000020: 41b9 72bc e31e 16be 5901 433d def8 3fbc
00000030: 55d6 2739 c01d c8bd a2af 553e 8b9c e03c
00000040: 2770 bb3c 5e3d f33b b14d 18bd e0cc 4bbd
00000050: db28 ba3b 2d9b 0bbd 2a50 99bc 60f0 aabc
00000060: 6226 d83b 2805 8a3c 6879 26bd 06a7 10bd
00000070: dcf9 f1bc 69d9 9d3c 8761 9dbb 9471 a13c
00000080: f4db 02bd 3be8 e63c c504 923d 9536 e13a
00000090: 4310 b63d 9d8b cd3d 207e 6bbc 67ec ae3d
000000a0: e28d c6bd 4bd5 3ebe b185 593d 080c 183d
000000b0: 70fe fb3c bffe 973d 0bd1 7b3e 98be 3dbd
000000c0: 0f04 9c3d 20ca 523d 6ae8 7bbd aa8a 2abd
000000d0: d386 e13d b484 a8bd 246a 8abd 235d d53c
000000e0: 3eb2 52bd 6288 c33d fa99 0fbe dfdb 6abd
000000f0: 740c dc3c 6328 143d 3077 3f3d e987 bd3d

network_body.linear_encoder.seq_layers.0.bias f4 [32]
0.08048763 -0.08828378 -0.00309555 -0.00092647475 -0.03503412 0.10643718 -0.0294535 -0.30348307
0.013044657 -0.07639627 0.041368373 -0.04923165 -0.2645748 -0.26598352 -0.11739388 -0.27475205
-0.17884654 0.048733946 -0.29031458 -0.3915114 0.035438668 -0.13820626 -0.0022330342 -0.067628406
-0.41149417 -0.32009196 -0.18897872 -0.38794392 -0.08822183 -0.4190342 -0.0688923 -0.26689544
00000000: b3d6 a43d 20ce b4bd b6de 4abb abde 72ba
00000010: f07f 0fbd bcfb d93d 7748 f1bc 2262 9bbe
00000020: 42b9 553c a675 9cbd e271 293d 20a7 49bd
00000030: 5976 87be fe2e 88be 346c f0bd 4dac 8cbe
00000040: 8c23 37be 3f9d 473d 1da4 94be 2f74 c8be
00000050: 2328 113d f185 0dbe 1958 12bb c380 8abd
00000060: 5daf d2be 18e3 a3be a383 41be 96a0 c6be
00000070: a6ad b4bd a78b d6be 6817 8dbd 85a6 88be

network_body.linear_encoder.seq_layers.0.weight f4 [32, 10]
-0.4000535 -0.270776 0.16649693 0.042646427 0.3831781 -0.29805544 0.07826578 -0.29592687
0.21936107 -0.3217282 0.26075262 -0.087015435 0.2569976 0.003221759 -0.12692165 -0.30364272
-0.010153462 -0.31704113 0.02815701 0.17960115 -0.2529962 -0.2691961 -0.6245048 0.02010828
0.26160735 -0.08361969 0.041895732 0.32317907 -0.32549316 -0.5989407 -0.4494206 -0.18612632
0.15838775 0.019318586 0.24386369 0.1248159 0.068755895 0.3509026 0.66962224 -0.010090539
-0.45824167 0.29751247 0.7123746 -0.048178874 -0.4402034 -0.38944438 -0.031982243 -0.19918159
0.17781119 0.006253456 0.7461742 0.49507478 -0.28201464 -0.0148614505 -0.35883284 -0.050572593
0.05007715 -0.26060712 -0.1457988 0.11066688 -0.47649276 0.036693834 0.052531462 0.014658895
-0.12430536 0.03055959 -0.027688662 1.0097222 0.19472766 0.09384501 -0.058842663 0.034541897
0.08685424 -0.63336426 0.0145780165 0.17323071 -0.9832643 0.007736947 0.6742965 0.40931368
-0.10515148 0.028041 0.6526692 0.044057 0.43564656 0.08728328 0.071621254 0.15166959
0.006488041 -0.14318871 0.09169875 -0.20617783 0.0071021765 -0.032275904 0.02210752 -0.38293797
-0.07637919 0.35322246 -0.12979542 0.22352716 -0.5867637 0.34740517 0.69562304 -0.014603041
-0.32939732 -0.50083506 0.03928509 -0.30571347 0.40188465 -0.16810505 0.23016262 -0.014814651
0.5958956 -0.032587882 -0.17110066 -0.12524444 0.010988019 -0.411991 0.3511869 -0.46283922
0.6869153 0.33621612 -0.013595114 0.26563784 -0.07130408 -0.8398758 -0.04161185 -0.050535236
0.35530105 -0.5935085 -0.008984369 0.40186635 -0.62977576 0.032143578 0.09889969 -0.42942408
-1.1277838 0.34517717 0.8916221 -0.41305214 0.26900795 0.19617401 0.08389819 -0.5694571
0.44050977 0.47476262 -0.081805915 0.4167028 0.19435927 -0.6931702 -0.26609704 -0.082567565
0.051290188 0.21635106 0.12263415 0.1839468 0.17045765 0.11743496 0.5599351 -0.3052446
-0.31470633 0.2591848 0.22552313 0.85539156 -0.33477607 -0.23817302 -1.0657823 0.1728659
-0.17774972 -0.09798211 -0.09176025 -0.14448269 -0.17591687 0.015318848 0.32873225 -0.5482648
0.03747141 -0.12381074 0.02129986 0.5364985 0.43314412 0.15694448 0.18134603 -0.5835069
-0.32695758 0.07817569 0.008684949 0.19571409 0.19220048 -0.7590296 0.12933832 0.00876206
-0.51248914 0.18909177 0.17468208 -0.4069272 0.27499014 0.3411195 0.55576116 0.5026544
0.33982494 -0.093828164 -0.53032863 0.06534432 -0.21668938 0.10435618 0.024956044 -0.02764848
-0.2178364 0.4767747 -0.37230724 0.43592644 -0.16872129 -0.024680968 -0.30652314 -0.09466962
-0.033293042 -0.29205102 0.2402859 -0.08181084 0.07413785 -0.30135444 0.37251362 0.075767286
0.3331339 0.22898155 0.08630902 -0.2540397 0.24167855 -0.4871654 0.110463664 -0.59444875
0.44512892 -0.047649357 0.6212354 0.13062519 -0.0750808 0.033303607 -0.37126166 0.2283633
-0.17673987 0.11337757 -0.29896858 -0.039609347 0.7975284 -0.068308055 0.12286051 -0.07741884
-0.5898913 0.5614648 0.1261332 0.093083754 -0.56654704 0.13539071 0.542791 0.4414532
00000000: d0d3 ccbe 27a3 8abe 2c7e 2a3e 05ae 2e3d
00000010: ec2f c43e b99a 98be cf49 a03d ba83 97be
00000020: 30a0 603e 8fb9 a4be 5e81 853e 2635 b2bd
00000030: 3095 833e 2624 533b c0f7 01be 0f77 9bbe
00000040: b55a 26bc 3753 a2be 88a9 e63c 5de9 373e
00000050: b888 81be 12d4 89be 8cdf 1fbf 1fba a43c
00000060: 66f1 853e cd40 abbd dc9a 2b3d ba77 a53e
00000070: 0aa7 a6be 2d54 19bf 751a e6be e697 3ebe
00000080: 6630 223e 0342 9e3c 67b7 793e 7b9f ff3d
00000090: e4cf 8c3d 81a9 b33e 5d6c 2b3f ca52 25bc
000000a0: a79e eabe 8e53 983e 2f5e 363f 3657 45bd
000000b0: 5762 e1be 4165 c7be d0ff 02bd 42f6 4bbe
000000c0: 2314 363e cbe9 cc3b 4605 3f3f 717a fd3e
000000d0: 3964 90be 717d 73bc f0b8 b7be 3525 4fbd
000000e0: b31d 4d3d 4c6e 85be 484c 15be 51a5 e23d
000000f0: dcf6 f3be 464c 163d 3b2b 573d dd2b 703c
00000100: cf93 febd 1b58 fa3c 55d3 e2bc 943e 813f
00000110: b066 473e d031 c03d 0105 71bd ce7b 0d3d
00000120: a3e0 b13d 2924 22bf a2d8 6e3c 6463 313e
00000130: 36b7 7bbf 3786 fd3b b29e 2c3f 9091 d13e
00000140: a959 d7bd 3db6 e53c 5415 273f 1d75 343d
00000150: 110d df3e 94c1 b23d 2aae 923d 464f 1b3e
00000160: a299 d43b 10a0 12be 8ecc bb3d 4820 53be
00000170: 60b9 e83b bd33 04bd d41a b53c 7210 c4be
00000180: b16c 9cbd 93d9 b43e 17e9 04be 4ee4 643e
00000190: 2536 16bf 17df b13e 5a14 323f 9841 6fbc
000001a0: c4a6 a8be ba36 00bf 67e9 203d 7a86 9cbe
000001b0: d3c3 cd3e bb23 2cbe c0af 6b3e 26b9 72bc
000001c0: 9d8c 183f df7a 05bd 0335 2fbe 1440 00be
000001d0: 1807 343c 7cf0 d2be c5ce b33e 43f9 ecbe
000001e0: aed9 2f3f 8524 ac3e 0bbe 5ebc af01 883e
000001f0: e007 92bd 1a02 57bf 3071 2abd 09fe 4ebd
00000200: 05ea b53e 2cf0 17bf 2d33 13bc 6dc1 cd3e
00000210: fc38 21bf fca8 033d ec8b ca3d 79dd dbbe
00000220: 385b 90bf 10bb b03e 5941 643f 927b d3be
00000230: 69bb 893e d7e1 483e d0d2 ab3d f1c7 11bf
00000240: 7f8a e13e 1614 f33e dc89 a7bd 125a d53e
00000250: 1e06 473e 9a73 31bf df3d 88be 2f19 a9bd
00000260: a915 523d 228b 5d3e 9d27 fb3d 8d5c 3c3e
00000270: 738c 2e3e be81 f03d e857 0f3f 0549 9cbe
00000280: 3021 a1be dfb3 843e 89ef 663e f1fa 5a3f
00000290: c567 abbe a1e3 73be 8e6b 88bf c203 313e
000002a0: 0604 36be d8aa c8bd ccec bbbd 45f3 13be
000002b0: 8d23 34be e8fb 7a3c 984f a83e 155b 0cbf
000002c0: 9f7b 193d 7c90 fdbd 0b7d ae3c f757 093f
000002d0: 11c5 dd3e 0eb6 203e c6b2 393e b560 15bf
000002e0: fc66 a7be 931a a03d 514b 0e3c 4669 483e
000002f0: 34d0 443e c44f 42bf 4471 043e be8e 0f3c
00000300: 7d32 03bf 46a1 413e dcdf 323e c358 d0be
00000310: 82cb 8c3e 37a7 ae3e 5d46 0e3f f5ad 003f
00000320: 89fd ad3e fb28 c0bd 9ec3 07bf 3ed3 853d
00000330: d2e3 5dbe b1b8 d53d 9e70 cc3c 117f e2bc
00000340: 8110 5fbe d01b f43e 0e9f bebe c031 df3e
00000350: 46c5 2cbe be2f cabc 9af0 9cbe 25e2 c1bd
00000360: 495e 08bd b687 95be 820d 763e 718c a7bd
00000370: 96d5 973d 214b 9abe 1bba be3e e12b 9b3d
00000380: 8790 aa3e 247a 6a3e c9c2 b03d 7e11 82be
00000390: 957a 773e be6d f9be c63a e23d cb2d 18bf
000003a0: f0e7 e33e f92b 43bd 4809 1f3f 9cc2 053e
000003b0: f6c3 99bd 5d69 083d 0216 bebe 12d8 693e
000003c0: 4cfb 34be 8032 e83d 6912 99be 693d 22bd
000003d0: d22a 4c3f 18e5 8bbd 4b9e fb3d c58d 9ebd
000003e0: 1e03 17bf 28bc 0f3f 1029 013e b2a2 be3d
000003f0: 3a09 11bf dda3 0a3e 5af4 0a3f 2706 e23e

network_body.linear_encoder.seq_layers.2.bias f4 [32]
-0.03088954 -0.01695523 0.049545173 -0.11998865 0.048548073 -0.027946297 -0.079141065 -0.17030714
-0.05495071 -0.16749883 0.042003855 -0.023570629 0.045863282 -0.13629965 -0.02185187 -0.037217613
0.07338398 0.053507898 -0.06373088 -0.08043744 -0.017771747 -0.077101886 -0.089610144 0.0031359985
-0.06942126 0.01356819 -0.1140066 -0.052338187 0.053652704 -0.021641867 0.017932419 0.0028087366
00000000: 100c fdbc b2e5 8abc e1ef 4a3d 9cbc f5bd
00000010: 58da 463d a2ef e4bc b614 a2bd ff64 2ebe
00000020: ff13 61bd d084 2bbe 3c0c 2c3d 3117 c1bc
00000030: 23db 3b3d 2392 0bbe b102 b3bc 7f71 18bd
00000040: 574a 963d 192b 5b3d 5685 82bd 62bc a4bd
00000050: 0e96 91bc 98e7 9dbd 8685 b7bd 5385 4d3b
00000060: bc2c 8ebd 1d4d 5e3c 4b7c e9bd 9160 56bd
00000070: f0c2 5b3d 494a b1bc 02e7 923c c812 383b

network_body.linear_encoder.seq_layers.2.weight f4 [32, 32]
0.06954114 0.006933654 0.09921002 0.14518224 -0.03116829 0.07919663 0.1572404 -0.08986682
-0.03371299 0.008080804 -0.031227414 0.029087173 0.18878625 -0.12655899 0.2515516 0.24075167
0.08197477 -0.004779383 0.19374514 0.040147066 0.11122006 0.10104381 -0.06488452 0.06565075
-0.09805297 0.0738751 -0.12675963 0.18888572 0.009895408 -0.38325506 -0.03868348 0.25909197
0.060677934 0.36510658 0.06551223 0.012069409 -0.029257268 -0.053013146 -0.090854175 -0.13020974
-0.08822433 0.08635711 0.108876295 0.131421 0.16990939 0.018360721 -0.053335845 -0.094186746
-0.08539456 0.39796758 0.06658142 -0.20784587 -0.20864448 0.1036215 -0.031766497 -0.07688224
-0.08808356 -0.16744292 -0.09216024 -0.1466436 -0.039722875 -0.026087187 -0.08636777 0.020154824
0.21755597 -0.03936943 -0.024304476 -0.027280139 -0.04234082 0.21415675 -0.070248075 -0.14923929
0.07114689 0.03497407 -0.052625947 0.18720871 0.13352802 -0.40591857 -0.047058903 -0.06979264
-0.058159232 -0.04175122 0.101799056 -0.22268336 -0.03884037 -0.13357955 -0.03875745 -0.2502035
-0.05629529 -0.011628158 0.21964423 -0.049596995 0.1933324 -0.07295941 0.010622316 0.03339175
0.03240003 -0.30010775 0.05002472 -0.085107364 0.00050131336 -0.10787232 0.033804253 -0.5384089
-0.20990145 -0.04948181 -0.020969896 -0.012647099 -0.22160564 -0.4415202 -0.027464513 -0.23839016
-0.06541891 0.043342695 0.006872295 -0.21610647 0.0054342425 -0.09970585 0.08848805 0.00979238
-0.062297925 -0.13832863 0.08531554 -0.0008206534 0.14811799 -0.2111102 -1.985246e-05 -0.043871254
0.0082964795 -0.059756994 0.11822864 -0.09063488 0.0023427296 0.06289024 -0.07821494 -0.026586795
0.089409195 0.017832993 -0.13336648 -0.115352385 -0.34372488 -0.45756173 -0.045798175 0.011014722
-0.14964783 0.012548939 -0.12512119 -0.40227562 -0.20815644 -0.115870416 0.3523241 -0.026613679
-0.2423068 -0.06939446 -0.087813914 0.088006414 0.17742561 0.19528577 -0.22307296 0.099922754
0.18833253 0.039929718 0.17325982 0.08935713 -0.051112503 0.22994685 -0.13459218 0.0029779514
0.15749758 -0.31420985 -0.031587537 0.14890322 -0.008885459 -0.057781946 0.11299337 -0.11793602
-0.43233272 -0.034966003 -0.34887177 -0.08336639 0.08919526 -0.1257126 0.18392415 -0.0072773336
-0.11669846 -0.1740171 -0.13523182 0.076721705 -0.3720225 -0.040775124 -0.14160551 -0.3082539
0.1813608 -0.014278934 0.10430771 -0.023481244 -0.030121578 -0.13829438 0.0994237 0.24484982
-0.019417167 -0.12154988 -0.07468653 0.026706906 0.19809163 -0.23815155 0.15494785 -0.13441153
0.06416581 -0.1194179 0.30354336 0.024427492 -0.066869386 -0.17014869 0.14608702 0.08122453
0.15881006 0.04044641 0.21796197 0.23237878 0.036534786 -0.06372506 -0.02709772 0.16344321
-0.031540878 -0.15860696 -0.029463604 -0.122610584 -0.15408774 -0.12353065 -0.12886083 0.44171673
-0.011171884 0.004905355 -0.0020470791 0.0540572 -0.2020551 -0.09725026 0.050499458 0.07267255
-0.07972426 -0.0008147196 0.6735161 -0.061679915 0.10247633 0.052274477 -0.01563538 0.04862128
-0.15949982 -0.19701831 0.5128226 -0.19283329 -0.042850435 0.06195201 -0.21618704 0.13941017
00000000: 966b 8e3d b533 e33b 9f2e cb3d a7aa 143e
00000010: a454 ffbc d831 a23d a103 213e 180c b8bd
00000020: a216 0abd 5965 043c a2d0 ffbc 3948 ee3c
00000030: 2f51 413e ae98 01be 5fcb 803e 9b87 763e
00000040: 63e2 a73d 5f9c 9cbb 2065 463e 4071 243d
00000050: 58c7 e33d 0ff0 ce3d 2de2 84bd e773 863d
00000060: ffcf c8bd d44b 973d 47cd 01be 426b 413e
00000070: 5920 223c 023a c4be 9272 1ebd b4a7 843e
00000080: 6d89 783d 40ef ba3e 472b 863d c5be 453c
00000090: f0ac efbc 5024 59bd c111 babd b455 05be
000000a0: f5ae b4bd ffdb b03d 89fa de3d 3a93 063e
000000b0: bafc 2d3e 3969 963c b076 5abd fbe4 c0bd
000000c0: 58e3 aebd 68c2 cb3e d75b 883d 8cd5 54be
000000d0: e6a6 55be 8237 d43d 961d 02bd 7074 9dbd
000000e0: 2765 b4bd 2876 2bbe 82be bcbd bd29 16be
000000f0: 74b4 22bd ccb4 d5bc 96e1 b0bd bb1b a53c
00000100: fec6 5e3e d741 21bd 2e1a c7bc 997a dfbc
00000110: 916d 2dbd e84b 5b3e 39de 8fbd 2fd2 18be
00000120: 76b5 913d f840 0f3d 4e8e 57bd a4b3 3f3e
00000130: 92bb 083e 8fd4 cfbe d6c0 40bd 72ef 8ebd
00000140: 6038 6ebd 5403 2bbd 067c d03d 1b07 64be
00000150: 1417 1fbd 14c9 08be 22c0 1ebd ac1a 80be
00000160: e495 66bd 0884 3ebc 6bea 603e 3826 4bbd
00000170: eef8 453e be6b 95bd 3909 2e3c cac5 083d
00000180: e5b5 043d b9a7 99be b9e6 4c3d c54c aebd
00000190: 926a 033a 2aec dcbd 5476 0a3d 2ad5 09bf
000001a0: 68f0 56be 70ad 4abd 0fc9 abbc c735 4fbc
000001b0: 97ec 62be f00e e2be 42fd e0bc 8d1c 74be
000001c0: 59fa 85bd 1c88 313d fd30 e13b 044b 5dbe
000001d0: bb11 b23b 9532 ccbd 3939 b53d 3870 203c
000001e0: 1c2c 7fbd 05a6 0dbe eab9 ae3d 1e21 57ba
000001f0: 3eac 173e 462d 58be d588 a6b7 58b2 33bd
00000200: f5ed 073c c0c3 74bd db21 f23d c89e b9bd
00000210: 7b88 193b 99cc 803d 282f a0bd 8dcc d9bc
00000220: 2b1c b73d 7f16 923c 3991 08be df3d ecbd
00000230: b5fc afbe 8845 eabe de96 3bbd 1877 343c
00000240: 483d 19be 119a 4d3c c51f 00be 12f7 cdbe
00000250: f626 55be 784d edbd d363 b43e ee04 dabc
00000260: 461f 78be af1e 8ebd c8d7 b3bd b53c b43d
00000270: 0faf 353e fef8 473e 3d6d 64be 4da4 cc3d
00000280: 3eda 403e 588d 233d 066b 313e df00 b73d
00000290: 585b 51bd 3077 6b3e 88d2 09be bc29 433b
000002a0: 0c47 213e 1de0 a0be ef61 01bd 167a 183e
000002b0: 5194 11bc c3ac 6cbd 1169 e73d 7188 f1bd
000002c0: b75a ddbe 8338 0fbd 529f b2be ffbb aabd
000002d0: 01ac b63d ceba 00be 9d56 3c3e b376 eebb
000002e0: 9aff eebd 8a31 32be 367a 0abe 4520 9d3d
000002f0: bc79 bebe d103 27bd 0901 11be 75d3 9dbe
00000300: a5b6 393e 31f2 69bc 489f d53d bd5b c0bc
00000310: 87c1 f6bc 0b9d 0dbe a79e cb3d e9b9 7a3e
00000320: c010 9fbc 25ef f8bd 40f5 98bd 71c8 da3c
00000330: 88d8 4a3e 00de 73be a6aa 1e3e 2da3 09be
00000340: 5d69 833d 5f91 f4bd 096a 9b3e 2a1c c83c
00000350: d1f2 88bd 753b 2ebe d697 153e 0c59 a63d
00000360: 1b9f 223e 23ab 253d 6c31 5f3e b4f4 6d3e
00000370: 80a5 153d 4982 82bd 0afc ddbc a85d 273e
00000380: 0231 01bd dd69 22be a85d f1bc 421b fbbd
00000390: 2dc9 1dbe a3fd fcbd 18f4 03be b228 e23e
000003a0: 470a 37bc 1abd a03b 4a28 06bb 156b 5d3d
000003b0: 88e7 4ebe 252b c7bd 85d8 4e3d 59d5 943d
000003c0: 7946 a3bd e892 55ba 8d6b 2c3f 14a4 7cbd
000003d0: 1cdf d13d c31d 563d c515 80bc 1b27 473d
000003e0: ec53 23be 2bbf 49be 5848 033f 1776 45be
000003f0: f083 2fbd 64c1 7d3d 2360 5dbe 8ac1 0e3e

network_body.vector_processors.0.normalizer.running_mean f4 [10]
0.0 0.0 0.0 0.5050026 0.0 0.0 0.22758663 0.0
0.0 0.0
00000000: 0000 0000 0000 0000 0000 0000 da47 013f
00000010: 0000 0000 0000 0000 780c 693e 0000 0000
00000020: 0000 0000 0000 0000
