Assets/AI/Horde0.onnx (onnx, 2301 bytes, 7 tensors)

55 f4 [10]
0	0x3dae0511	0.0849706
1	0x3dadd224	0.08487347
2	0x3daddfd8	0.084899604
3	0x3dad69e6	0.08467464
4	0x3dad5b03	0.08464625
5	0x3dae0517	0.084970646
6	0x3dadd21d	0.084873416
7	0x3daddfd6	0.08489959
8	0x3dad69df	0.08467459
9	0x3dad5b0b	0.08464631

action_model._continuous_distribution.log_sigma f4 [1, 2]
0	0xbf487397	-0.78301376
1	0xbf49f2cc	-0.78886104

action_model._continuous_distribution.mu.bias f4 [2]
0	0x3f3da476	0.7407907
1	0xbf2c3fc6	-0.6728481

action_model._continuous_distribution.mu.weight f4 [2, 2]
0	0xbf4e25b2	-0.8052627
1	0xbf95770a	-1.1676953
2	0x3f73b2e9	0.9519487
3	0x3f59f18e	0.8513421

network_body.linear_encoder.seq_layers.0.bias f4 [2]
0	0x3f2bec00	0.6715698
1	0x3f0b488b	0.54407567

network_body.linear_encoder.seq_layers.0.weight f4 [2, 10]
0	0xbf103c54	-0.56342053
1	0xbf266fdf	-0.6501445
2	0xbed7d453	-0.42154178
3	0xbf46a0f6	-0.77589357
4	0xbec39a44	-0.38203633
5	0x3e4f7a06	0.20261392
6	0x3f02ceb7	0.5109667
7	0x3ecc0c4f	0.3985314
8	0x3f50267e	0.81308734
9	0x3f2dce61	0.67893034
10	0xbe356fa0	-0.17718363
11	0xbf02589f	-0.50916475
12	0xbeeafc89	-0.45895794
13	0xbf1a767f	-0.6033706
14	0xbe93d41b	-0.2887276
15	0x3edcdf63	0.4313918
16	0x3f2bb199	0.6706787
17	0x3ef6be27	0.4819195
18	0x3f14e82f	0.58166784
19	0x3c84d21c	0.01621347

network_body.vector_processors.0.normalizer.running_mean f4 [10]
0	0x3dcd2a46	0.10017829
1	0x3dcdb61c	0.100445
2	0x3dccd215	0.100010075
3	0x3dccce07	0.10000234
4	0x3dcca171	0.0999173
5	0x3dcd2a2e	0.10017811
6	0x3dcdb62d	0.10044513
7	0x3dccd225	0.100010194
8	0x3dcccdf7	0.10000222
9	0x3dcca14b	0.09991702
